training/BiLSTMWithAttention_best_model_4.0.pth (torch, 276223 bytes, 27 tensors)

lstm.weight_ih_l0 f4 [128, 34]
-0.07406154 -0.12515506 0.104097135 0.024543846 0.09652844 0.098535135 0.012258913 -0.09421142
0.05270953 0.1313314 0.15465094 -0.20129748 -0.3954597 -0.33472306 0.2401532 -0.09549256
-0.20816222 0.3140539 0.14182235 0.05285731 0.037960485 0.19513094 0.17891954 -0.28942627
-0.16761695 -0.072163865 -0.064577766 -0.15982854 -0.23644222 -0.045806184 0.17641525 -0.029261027
0.09892294 -0.1154926 0.0747751 -0.14878404 -0.120796904 -0.078919455 -0.25757286 0.0094254175
-0.15483345 -0.13266502 -0.13467874 -0.04541518 -0.01071599 0.19380686 0.14819822 0.2967772
0.299526 0.08471477 0.14206763 0.05376712 0.40619054 0.24856128 0.08990261 0.045457456
-0.0052078506 -0.16145107 0.042744566 0.011345579 -0.11622797 -0.08081839 -0.02648903 0.07432936
-0.15802677 0.050627694 0.13302436 -0.05704606 0.14142527 0.0348139 0.16794038 0.055970877
0.19742908 0.19971204 0.18001443 0.0928751 0.29260176 0.03564244 0.14860128 0.11847475
-0.06839139 0.016990127 0.0069627766 0.03006415 -0.21273753 0.041606728 0.24691825 0.064914614
-0.15442494 -0.31395468 0.02449234 0.21332969 -0.048562434 0.24151398 -0.23362553 -0.13280328
-0.23120667 -0.053897996 -0.12361622 0.03496451 -0.59684116 -0.16614735 -0.08447763 -0.010311862
-0.06493741 0.01098194 0.15229952 -0.040725958 0.05899096 0.0344156 -0.095076375 0.18829489
-0.12940079 0.075681284 -0.030491592 0.022792913 0.013430663 0.0029853866 -0.08525588 0.099269345
0.04741938 0.0067262207 0.0020030083 -0.06698059 -0.1355526 -0.24249314 0.019395934 -0.09098337
0.12822269 -0.24626023 0.022938127 0.065052114 0.07143025 -0.069759876 0.030479 -0.076155916
0.0865968 0.20520319 0.20062807 -0.043734048 0.08508587 -0.053517718 0.0731798 0.069626115
0.1766709 0.16559479 -0.013477571 0.25144795 -0.15655608 0.03902571 0.123020224 0.093732454
0.028018637 0.15785815 0.17972353 -0.088269755 -0.15344611 -0.17257226 -0.1587507 0.02314095
0.041786533 -0.1731671 0.023074616 -0.19897725 -0.052002836 -0.12677968 -0.065418735 -0.20014739
-0.08734844 -0.14997928 0.0802235 -0.08470013 0.10464959 0.07324726 -0.03550091 -0.080469824
0.31040397 0.23427439 -0.012850201 -0.0018544596 0.11168671 0.05827008 -0.07853857 0.15200609
0.26549098 -0.028000733 -0.044780526 -0.13503118 0.21670637 0.25414184 0.015395688 -0.19275512
-0.06664702 0.0697171 -0.024249984 0.023919573 -0.14748229 0.018750433 -0.11114783 -0.055272374
0.0012232471 0.09458354 -0.27217323 -0.12484336 0.08724153 0.2422752 0.18325736 0.059555136
0.0004154449 0.18018617 -0.13255271 -0.03168314 -0.061076663 0.16414686 0.015206996 0.28804004
-0.31400046 0.13619398 -0.0019752095 0.06571034 -0.01603877 0.047624085 0.1881533 0.26058897
-0.08999003 -0.15998349 0.029223997 -0.09959285 -0.3122637 -0.1555293 -0.098813854 0.0385109
-0.12935974 0.08792032 0.07966733 -0.3111003 0.09293269 0.14448462 -0.21778767 -0.09261644
-0.11898743 0.095021434 -0.18056233 0.028706167 0.2336987 0.083231874 -0.1338938 -0.012930677
0.076801375 0.11128642 0.15069449 0.24438299 -0.10915388 0.10089731 -0.0019643402 0.27379248
00000000: 94ad 97bd a628 00be e130 d53d 2d10 c93c
00000010: b4b0 c53d cacc c93d 9cd9 483c ebf1 c0bd
00000020: f3e5 573d bd7b 063e d15c 1e3e ed20 4ebe
00000030: b279 cabe d260 abbe b8ea 753e 9a91 c3bd
00000040: 7a28 55be accb a03e e139 113e e880 583d
00000050: 747c 1b3d 68d0 473e af36 373e ae2f 94be
00000060: c7a3 2bbe a6ca 93bd 5941 84bd 18aa 23be
00000070: e91d 72be 449f 3bbd 33a6 343e d2b4 efbc
00000080: 1c98 ca3d 6287 ecbd b023 993d d85a 18be
00000090: 5e64 f7bd 86a0 a1bd 97e0 83be 116d 1a3c
000000a0: a98c 1ebe 57d9 07be 39e9 09be 4505 3abd
000000b0: 1f92 2fbc 4e75 463e 46c1 173e 2ef3 973e
000000c0: 795b 993e f07e ad3d 2d7a 113e e93a 5c3d
000000d0: 35f8 cf3e d986 7e3e dc1e b83d 9931 3a3d
000000e0: 9ea6 aabb 6e53 25be ed14 2f3d cfe2 393c
000000f0: ee08 eebd 1d84 a5bd 86ff d8bc fe39 983d
00000100: c5d1 21be fc5e 4f3d 8a37 083e 21a9 69bd
00000110: c9d1 103e 0599 0e3d 90f8 2b3e b841 653d
00000120: d92a 4a3e 5081 4c3e b455 383e 4d35 be3d
00000130: e6cf 953e cffd 113d ef2a 183e e4a2 f23d
00000140: c910 8cbd e12e 8b3c 0128 e43b 1849 f63c
00000150: ded7 59be d16b 2a3d 23d8 7c3e f4f1 843d
00000160: 9221 1ebe abbe a0be 29a4 c83c 1973 5a3e
00000170: 67e9 46bd 714f 773e 883b 6fbe 95fd 07be
00000180: 71c1 6cbe 25c4 5cbd 802a fdbd f236 0f3d
00000190: 95ca 18bf 8822 2abe 9c02 adbd 16f3 28bc
000001a0: e8fd 84bd 98ed 333c 68f4 1b3e 43d0 26bd
000001b0: 81a0 713d 5ff7 0c3d 67b7 c2bd 60d0 403e
000001c0: a481 04be cafe 9a3d 81c9 f9bc 34b8 ba3c
000001d0: 490c 5c3c 7aa6 433b a39a aebd ba4d cb3d
000001e0: d33a 423d a167 dc3b e744 033b 1f2d 89bd
000001f0: 4dce 0abe 1f50 78be 39e4 9e3c 7d55 babd
00000200: cf4c 033e a42b 7cbe bde8 bb3c 0b3a 853d
00000210: 064a 923d 44de 8ebd 19af f93c a2f7 9bbd
00000220: aa59 b13d c920 523e 7271 4d3e 7922 33bd
00000230: 8041 ae3d 6535 5bbd 4adf 953d 2398 8e3d
00000240: 37e9 343e ae91 293e 08d1 5cbc c9bd 803e
00000250: 3d50 20be 6cd9 1f3d 07f2 fb3d cdf6 bf3d
00000260: 5787 e53c 91a5 213e 7209 383e c6c6 b4bd
00000270: fa20 1dbe c8b6 30be 8b8f 22be 1792 bd3c
00000280: 5b28 2b3d b752 31be fa06 bd3c b1c0 4bbe
00000290: ed00 55bd 88d2 01be 42fa 85bd 70f3 4cbe
000002a0: bde3 b2bd 2b94 19be 384c a43d 4377 adbd
000002b0: 8652 d63d a902 963d 6769 11bd 5dcd a4bd
000002c0: 45ed 9e3e a0e5 6f3e a689 52bc 5711 f3ba
000002d0: 00bc e43d 9bac 6e3d d4d8 a0bd 7ca7 1b3e
000002e0: 6fee 873e cb61 e5bc c96b 37bd 9d45 0abe
000002f0: 46e8 5d3e e11e 823e 323e 7c3c 9961 45be
00000300: 3c7e 88bd d7c7 8e3d e7a7 c6bc fbf2 c33c
00000310: 9905 17be 829a 993c 79a1 e3bd 4965 62bd
00000320: 5d55 a03a 04b5 c13d 4a5a 8bbe e0ad ffbd
00000330: b0ab b23d fd16 783e d1a7 3b3e 16f0 733d
00000340: 12d0 d939 b982 383e e6bb 07be 2ec6 01bd
00000350: 862b 7abd 1d16 283e c426 793c fc79 933e
00000360: abc4 a0be 6f76 0b3e 8472 01bb 2593 863d
00000370: bd63 83bc 7911 433d 42ab 403e eb6b 853e
00000380: b14c b8bd b6d2 23be 2a67 ef3c 56f7 cbbd
00000390: 07e1 9fbe 1343 1fbe eb5e cabd 9bbd 1d3d
000003a0: e176 04be 920f b43d a028 a33d 8a48 9fbe
000003b0: 7f53 be3d c7f3 133e bb03 5fbe b0ad bdbd
000003c0: afaf f3bd 999a c23d 55e5 38be 3229 eb3c
000003d0: b64e 6f3e 7975 aa3d 751b 09be 31db 53bc
000003e0: 0a4a 9d3d 22ea e33d a84f 1a3e 893f 7a3e
000003f0: 128c dfbd 40a3 ce3d 29bc 00bb 872e 8c3e

lstm.weight_hh_l0 f4 [128, 32]
-0.14676942 -0.09090865 0.23465718 0.020507274 -0.10643189 -0.025757976 -0.12566577 0.33098713
0.087065615 -0.21977837 -0.028471317 -0.058379002 0.118757114 0.00995952 0.132623 0.026160218
-0.26658773 0.15966363 -0.09026085 0.1113321 0.10246125 -0.059730157 0.015753135 -0.15732749
0.08721454 -0.023945026 0.16348778 -0.11955605 0.13469811 -0.22917461 -0.029550517 -0.26235253
-0.15685758 0.12091742 0.18785244 -0.15701693 -0.006539635 0.19254045 -0.075360924 -0.04101075
0.03215872 -0.20332322 -0.06009784 -0.1369775 -0.12095069 -0.08180794 -0.07387221 0.15213871
0.048950464 0.009262408 -0.122734375 -0.12993978 -0.11019064 0.14854974 0.2229875 0.1268964
0.109185465 0.025500588 0.0035563407 -0.09689195 0.070036285 -0.30460235 -0.1672656 -0.03652375
0.3541652 -0.32547596 -0.07278701 0.1304974 -0.10341622 0.10864589 0.025388401 0.13478725
0.21382031 -0.1881424 -0.17326832 0.06444716 0.077749714 -0.020366045 0.2793191 0.01630898
0.18094523 -0.11081446 0.15470935 -0.12467624 -0.14370379 0.07259392 0.13980383 -0.037515726
0.08276277 0.14795029 0.17841348 -0.30402282 -0.08685591 -0.074868195 0.09251555 0.12284887
0.08341423 -0.036386512 -0.042228922 -0.23614025 -0.025349138 0.021590425 -0.17841469 0.050510745
-0.06260758 0.040128585 0.13439162 0.012966914 0.0019027679 0.076266535 0.00417512 -0.108751014
-0.24383399 0.22572294 0.17500427 0.07033958 0.01560242 -0.021268528 -0.08465262 0.1167719
-0.19189079 -0.036935464 -0.020100659 0.21799183 0.0080504855 0.0031650397 0.08715683 0.019771166
-0.018596768 0.13933048 0.07877235 0.08014244 0.112321064 -0.19920337 -0.1495213 0.12498782
0.028593833 0.0384579 0.023997145 0.041494537 0.18078907 -0.040477768 0.25591308 0.021053307
0.16356654 0.1351113 0.098703206 -0.23810978 0.017004212 0.014138812 0.07041952 -0.019131135
0.17655046 -0.06138384 0.21291171 -0.24201734 -0.2096579 0.06434492 0.087103635 -0.030073844
-0.09517998 -0.01693533 0.22317885 -0.12638038 -0.12890112 -0.072669476 0.14128035 -0.018239263
-0.31912246 -0.23966059 -0.014221144 0.053274684 -0.11820411 0.07677166 0.01650572 -0.0002472618
0.010528169 0.15496622 0.045541797 -0.022033129 -0.007487231 0.059556983 0.049334798 -0.15936907
-0.09066992 0.24391796 0.084134534 -0.020875895 -0.07099597 -0.06857635 -0.0026335092 0.13051543
-0.23740834 -0.17135385 0.22207248 0.116279416 -0.22633664 -0.12474933 0.09087805 -0.12711808
-0.2168301 0.090523735 0.018479887 -0.104803756 0.0942597 0.13163479 0.27151284 -0.15118241
0.12352095 0.11521246 0.16927165 -0.15014742 0.2999362 -0.09131136 0.04970584 0.007754676
-0.23943265 -0.10138961 0.07089982 -0.05627986 -0.17599954 -0.10055057 0.009923884 -0.18947652
-0.0008542064 -0.009326409 0.38284212 0.015338412 0.16580819 -0.020314064 0.1287511 0.07367999
-0.19081008 0.05388082 0.2619087 0.12627375 -0.24470861 -0.32909864 -0.03630018 0.16432296
0.061855454 -0.13962986 -0.08349238 -0.037975404 -0.37924355 -0.012565169 -0.06262737 0.13482209
0.11868373 0.18184799 -0.024833336 -0.048298188 -0.012324373 0.010995911 0.28677198 -0.054038618
00000000: b94a 16be 502e babd f949 703e dffe a73c
00000010: f6f8 d9bd 6402 d3bc 87ae 00be 2577 a93e
00000020: 754f b23d 950d 61be ae3c e9bc d21e 6fbd
00000030: ee36 f33d 412d 233c 53ce 073e f44d d63c
00000040: 307e 88be dd7e 233e aeda b8bd 1602 e43d
00000050: 34d7 d13d 9ca7 74bd b80c 813c 751a 21be
00000060: 899d b23d 5c28 c4bc 5769 273e cdd9 f4bd
00000070: 4dee 093e c0ac 6abe ed13 f2bc 1253 86be
00000080: 469f 20be 8da3 f73d 645c 403e 0cc9 20be
00000090: 6f4a d6bb 5329 453e d456 9abd e3fa 27bd
000000a0: ddb8 033d f633 50be 2729 76bd d443 0cbe
000000b0: ffb4 f7bd ec8a a7bd 504a 97bd 40ca 1b3e
000000c0: 4880 483d 5bc1 173c 295c fbbd ef0e 05be
000000d0: a1ab e1bd 6c1d 183e d656 643e 21f1 013e
000000e0: a19c df3d 9ce6 d03c 7f11 693b 496f c6bd
000000f0: 2f6f 8f3d d7f4 9bbe ac47 2bbe ed99 15bd
00000100: 2455 b53e c9a4 a6be 5b11 95bd 1ca1 053e
00000110: e2cb d3bd bd81 de3d 56fb cf3c ab05 0a3e
00000120: b6f3 5a3e 67a8 40be 406d 31be dffc 833d
00000130: 3e3b 9f3d b1d6 a6bc ea02 8f3e 699a 853c
00000140: b549 393e b1f2 e2bd 216c 1e3e 4256 ffbd
00000150: 1627 13be 1fac 943d bc28 0f3e 17aa 19bd
00000160: 877f a93d 4880 173e 06b2 363e e1a8 9bbe
00000170: 83e1 b1bd 7f54 99bd cb78 bd3d 3098 fb3d
00000180: 14d5 aa3d 060a 15bd 3cf8 2cbd c0ce 71be
00000190: ffa8 cfbc 67de b03c 57b2 36be 5be4 4e3d
000001a0: 6738 80bd df5d 243d f59d 093e 2e73 543c
000001b0: 4c66 f93a a131 9c3d 72cf 883b dab8 debd
000001c0: 9eaf 79be ea23 673e 5234 333e 330e 903d
000001d0: 4ba1 7f3c 563b aebc 5a5e adbd 1b26 ef3d
000001e0: 057f 44be a449 17bd 23aa a4bc 4039 5f3e
000001f0: 2fe6 033c 8e6c 4f3b 487f b23d 24f7 a13c
00000200: 4058 98bc a6ac 0e3e 6653 a13d b821 a43d
00000210: 9608 e63d f8fb 4bbe 1d1c 19be 9df9 ff3d
00000220: 9d3d ea3c 0886 1d3d a995 c43c 2df6 293d
00000230: c520 393e 04cc 25bd 0a07 833e fc77 ac3c
00000240: fd7d 273e 9e5a 0a3e e824 ca3d 0dd3 73be
00000250: 6b4c 8b3c 7aa6 673c 1c38 903d e6b8 9cbc
00000260: a5c9 343e 9f6d 7bbd 8705 5a3e 65d3 77be
00000270: 8fb0 56be 45c7 833d 6463 b23d 6c5d f6bc
00000280: b9ed c2bd f6bb 8abc ff88 643e dc69 01be
00000290: a8fe 03be bcd3 94bd ccab 103e 826a 95bc
000002a0: 0564 a3be 9669 75be cdff 68bc 8e36 5a3d
000002b0: ff14 f2bd 763a 9d3d 0137 873c eba2 81b9
000002c0: 577e 2c3c 77af 1e3e 098a 3a3d d27e b4bc
000002d0: 7257 f5bb 06f2 733d 4913 4a3d a531 23be
000002e0: 27b1 b9bd a1c5 793e ba4e ac3d ed03 abbc
000002f0: 5666 91bd c271 8cbd f496 2cbb d6a5 053e
00000300: 2c1b 73be 6277 2fbe f866 633e e723 ee3d
00000310: cbc4 67be 947c ffbd 451e ba3d 3e2b 02be
00000320: b608 5ebe 8264 b93d 2263 973c 5aa3 d6bd
00000330: 3b0b c13d 45cb 063e bb03 8b3e 90cf 1abe
00000340: 8df8 fc3d 83f4 eb3d 8c55 2d3e 3fc0 19be
00000350: 3d91 993e 7301 bbbd 5a98 4b3d f01a fe3b
00000360: d52d 75be 5ba5 cfbd ed33 913d b685 66bd
00000370: 3939 34be 75ed cdbd c997 223c 2206 42be
00000380: d2ec 5fba cbcd 18bc e203 c43e f64d 7b3c
00000390: 9fc9 293e ae69 a6bc 54d7 033e 89e5 963d
000003a0: b863 43be 22b2 5c3d e618 863e e84d 013e
000003b0: e594 7abe 9e7f a8be 7faf 14bd 4744 283e
000003c0: 255c 7d3d 21fb 0ebe 0efe aabd 198c 1bbd
000003d0: 362c c2be 23de 4dbc c742 80bd cd0e 0a3e
000003e0: 7510 f33d 5c36 3a3e 486f cbbc 52d4 45bd
000003f0: 2bec 49bc 3228 343c c7d3 923e 9957 5dbd

lstm.bias_ih_l0 f4 [128]
-0.057481702 0.029798333 -0.13837175 -0.21266522 -0.21514094 0.21988949 -0.14170317 0.20408812
-0.09630272 0.056247253 0.10045045 -0.0011870464 -0.00037981346 0.19476147 0.13612615 -0.17161983
0.19199458 -0.39358094 0.24696526 0.058029205 -0.02684399 -0.2282056 0.06440823 -0.40843686
-0.06485094 -0.23122528 0.010646778 -0.109605156 0.037217155 0.0012955093 -0.05815863 0.15750025
-0.1327401 -0.004782896 0.053607423 -0.19601758 -0.00056034146 0.16196233 -0.03208349 0.14668037
-0.27046967 -0.111502774 0.14185625 -0.17858888 0.042379234 -0.04608548 0.10648873 -0.18599603
0.20008108 -0.094443545 -0.0271366 0.02877995 0.054842036 -0.15871964 -0.026955822 -0.2289575
0.15525582 -0.19223969 0.041905668 -0.10907443 -0.0785235 0.0041652885 -0.0052774847 0.08749182
0.049115326 0.08553521 0.1317131 0.043499045 -0.14753538 0.0047662314 0.14460677 -0.04555027
0.099349536 0.06288817 -0.0077347513 0.1754567 0.03562623 -0.12081407 0.010926266 -0.08421311
0.1407132 0.07352276 0.050353687 -0.122376025 -0.082414426 0.088779315 -0.10627172 0.03863027
0.15869735 0.16538122 0.011229876 -0.026388671 0.183009 0.15152068 -0.05740806 0.05452551
-0.2197613 -0.22886316 0.0459513 -0.32015014 -0.07442234 0.121480905 0.072307386 0.17820963
-0.069153 -0.16787814 0.09845824 -0.264517 -0.14233173 0.19639723 0.028675219 -0.26536033
0.09105414 -0.30928707 0.18026069 -0.07739921 -0.076947115 0.031354893 -0.039582986 -0.26781046
0.21172637 -0.033412293 -0.06182637 0.026432797 -0.019221136 -0.13414161 -0.1316082 0.17828387
00000000: ef71 6bbd a21b f43c 53b1 0dbe e9c4 59be
00000010: e84d 5cbe b62a 613e a31a 11be 7afc 503e
00000020: 5c3a c5bd 8563 663d f7b8 cd3d ab96 9bba
00000030: b321 c7b9 8d6f 473e a764 0b3e 1cbd 2fbe
00000040: 3a9a 443e 7183 c9be 76e4 7c3e 08b0 6d3d
00000050: ede7 dbbc bbae 69be 76e8 833d a31e d1be
00000060: 92d0 84bd 52c6 6cbe d36f 2e3c ab78 e0bd
00000070: 0471 183d 14ce a93a be37 6ebd bf47 213e
00000080: 05ed 07be d7b9 9cbb 7593 5b3d d5b8 48be
00000090: e1e3 12ba 74d9 253e fa69 03bd 6133 163e
000000a0: 007b 8abe 915b e4bd c442 113e 01e0 36be
000000b0: d995 2d3d 21c4 3cbd c316 da3d be75 3ebe
000000c0: 0ee2 4c3e 9e6b c1bd 934d debc eec3 eb3c
000000d0: 0ba2 603d 6787 22be 75d2 dcbc d673 6abe
000000e0: 62fb 1e3e 7bda 44be 47a5 2b3d 6a62 dfbd
000000f0: eed0 a0bd f97c 883b c0ee acbb e92e b33d
00000100: 272d 493d 162d af3d cddf 063e 0e2c 323d
00000110: 8413 17be 0c2e 9c3b cc13 143e eb92 3abd
00000120: c577 cb3d 83cb 803d cc73 fdbb ecaa 333e
00000130: cfec 113d 5e6d f7bd 1504 333c ec77 acbd
00000140: 1f17 103e 1a93 963d ab3f 4e3d 48a0 fabd
00000150: e5c8 a8bd eed1 b53d fda4 d9bd c63a 1e3d
00000160: 8f81 223e b259 293e 84fd 373c 0e2d d8bc
00000170: b666 3b3e 3d28 1b3e b724 6bbd 2456 5f3d
00000180: 1b09 61be 1b5b 6abe 6e37 3c3d b8ea a3be
00000190: bd6a 98bd fbca f83d e515 943d 967c 363e
000001a0: 17a0 8dbd 3fe8 2bbe 79a4 c93d c66e 87be
000001b0: 69bf 11be 5b1c 493e 4be8 ea3c 4fdd 87be
000001c0: 987a ba3d e05a 9ebe 4296 383e 7a83 9ebd
000001d0: 7396 9dbd fd6d 003d c521 22bd 741e 89be
000001e0: ccce 583e 54db 08bd a63d 7dbd 9889 d83c
000001f0: a575 9dbc 6b5c 09be 4dc4 06be 0c90 363e

lstm.bias_hh_l0 f4 [128]
-0.06626167 0.0029146494 -0.16611046 -0.25924116 -0.18586631 0.165771 -0.16388501 -0.028186364
-0.25272632 0.027299453 -0.032912042 -0.17991981 -0.117655344 -0.047166705 0.11758536 -0.15417008
0.19883533 -0.31483263 -0.07503559 -0.055890374 0.09145148 -0.10061108 -0.036332093 -0.41808787
0.08711746 -0.2213585 0.12442762 -0.25370413 -0.16110301 -0.09889423 -0.020769395 0.00592747
-0.05531311 -0.20762175 0.04426768 -0.24068274 0.052586727 0.04376969 -0.1944374 -0.087961875
-0.23178463 0.09987599 0.019013064 -0.20194416 0.036577914 0.055242743 0.118382245 0.0697946
0.09995057 -0.008768781 0.07412329 0.021670416 -0.107405104 -0.121427625 0.110551216 -0.23252892
-0.06904072 -0.25426438 -0.15584855 -0.050186798 0.119510196 0.008259106 -0.0218834 -0.16728573
0.053213984 0.09338283 0.059047144 0.055031627 0.06989922 0.19972754 -0.089849554 -0.21985112
-0.004928012 0.24682997 0.16827434 0.10806459 -0.122530654 -0.120183274 0.0734844 -0.07841594
0.021820618 0.26281023 0.07479857 -0.06913069 -0.07711482 0.13901846 0.08376635 -0.022470307
-0.0909987 0.098975234 -0.013338158 0.040477175 0.1031863 0.12949726 -0.060331866 0.12649673
-0.26880997 -0.16447249 0.06193145 -0.11499731 -0.051112697 -0.01710358 -0.08654176 0.19283387
-0.27974993 0.07925208 0.13388374 -0.042696238 -0.23026592 0.20831323 0.24877824 -0.22056697
0.2850944 -0.055544987 -0.062428303 0.059222117 -0.13282819 -0.13641007 0.007677839 -0.2963713
-0.047988705 -0.008221849 0.01977202 -0.0972564 0.005658743 -0.13175644 0.0012505985 -0.055075895
00000000: 33b4 87bd b403 3f3b dc18 2abe 42bb 84be
00000010: bd53 3ebe dfbf 293e 79d1 27be 17e7 e6bc
00000020: 5865 81be 1aa3 df3c c7ce 06bd e63c 38be
00000030: 49f5 f0bd e031 41bd 98d0 f03d c3de 1dbe
00000040: 7d9b 4b3e be31 a1be 42ac 99bd 4eed 64bd
00000050: ea4a bb3d 2f0d cebd f6d0 14bd 9d0f d6be
00000060: a46a b23d cdab 62be e8d3 fe3d 82e5 81be
00000070: 30f8 24be 0f89 cabd 9424 aabc 393b c23b
00000080: 0090 62bd cc9a 54be 0752 353d 8975 76be
00000090: 2e65 573d d947 333d 991a 47be 5b25 b4bd
000000a0: f358 6dbe c88b cc3d 49c1 9b3c 73ca 4ebe
000000b0: b9d2 153d 3746 623d 6472 f23d 79f0 8e3d
000000c0: e2b2 cc3d efaa 0fbc f4cd 973d 2886 b13c
000000d0: 35f7 dbbd 0caf f8bd ad68 e23d 101c 6ebe
000000e0: 3965 8dbd f12e 82be c396 1fbe ac90 4dbd
000000f0: c3c1 f43d 3451 073c d144 b3bc f34c 2bbe
00000100: e8f6 593d 7f3f bf3d 6bdb 713d d868 613d
00000110: 5227 8f3d 6085 4c3e 0b03 b8bd a720 61be
00000120: 297b a1bb ffc0 7c3e 1c50 2c3e f850 dd3d
00000130: 5af1 fabd a622 f6bd fd7e 963d 8998 a0bd
00000140: 27c1 b23c 108f 863e fe2f 993d 6494 8dbd
00000150: 60ee 9dbd db5a 0e3e b18d ab3d a613 b8bc
00000160: 875d babd 87b3 ca3d 4a88 5abc 65cb 253d
00000170: 5753 d33d ee9a 043e 8c1e 77bd 5c88 013e
00000180: 76a1 89be 7a6b 28be d5ab 7d3d b683 ebbd
00000190: 8c5b 51bd cf1c 8cbc ce3c b1bd 3e76 453e
000001a0: 623b 8fbe ea4e a23d d218 093e 40e2 2ebd
000001b0: d4ca 6bbe 1050 553e b9bf 7e3e 4fdc 61be
000001c0: e5f7 913e 2483 63bd d2b4 7fbd e492 723d
000001d0: 1d04 08be 15af 0bbe 6296 fb3b fbbd 97be
000001e0: ce8f 44bd efb4 06bc eef8 a13c 5d2e c7bd
000001f0: fa6c b93b 29eb 06be 1feb a33a 4397 61bd

lstm.weight_ih_l0_reverse f4 [128, 34]
-0.07257909 0.185321 0.10417652 0.09929508 -0.19846825 0.085851096 -0.0003799291 -0.12247819
-0.008004069 0.05973943 -0.15364109 0.18789019 0.019037606 0.23551244 0.2319003 0.13111958
-0.21661335 0.17801902 0.16366243 0.563848 -0.2448847 0.10237876 -0.10995497 -0.14683476
0.046352025 0.109147824 0.1808345 -0.11684369 -0.20692441 -0.36463943 0.05097772 -0.27606714
0.041402046 -0.04096007 0.067287594 0.088189386 0.13273834 0.2797268 0.14282848 0.26237926
-0.052707862 0.02733033 0.24709082 0.19750027 -0.24727431 0.23091489 0.03411027 0.08009408
0.014958471 -0.022040455 0.07727426 -0.21384577 -0.099291384 0.047450017 -0.017077157 -0.22890142
-0.17909686 -0.070902556 0.01454892 -0.026745515 -0.1688358 -0.26708898 -0.16645955 -0.09034118
-0.25311536 -0.15429522 -0.18197738 -0.06081247 0.1202273 0.097161025 0.19504493 -0.16833383
0.24764848 -0.027676174 -0.15278594 -0.21519141 -0.035494167 0.12375851 0.15809709 -0.34680495
-0.0011504418 -0.57668453 0.123463504 0.17078416 -0.22572932 -0.19868729 0.27935487 0.17039593
-0.15417866 -0.21635485 0.08700009 0.1525911 -0.14154893 0.09989069 -0.11345014 0.26006624
0.039399024 0.114342675 -0.12574132 0.013676642 -0.13281874 0.044285133 0.11929222 0.4176329
-0.01809356 0.14707376 0.3811152 0.33793208 -0.21928525 0.09085808 -0.0032712414 0.13979536
-0.21877225 -0.00711963 0.12327928 -0.08500445 -0.32863685 -0.039004 0.09530827 -0.17516944
-0.08851267 -0.11239567 -0.061443485 -0.0026147808 -0.1688459 -0.21294518 -0.09383371 -0.18299414
-0.12779805 -0.27904588 -0.09232932 -0.07252566 0.14545187 0.06627543 -0.15691483 -0.15067568
-0.03965362 0.13142465 -0.11924681 0.0008370103 -0.21823116 -0.09421012 -0.32175696 -0.2188025
0.0655807 0.1856835 -0.1978956 -0.0451851 -0.0103709 -0.022978954 -0.055303365 -0.0060300617
0.18796968 -0.05705132 -0.07995913 0.064877935 0.1069299 0.37276456 0.21866016 -0.08070543
0.20064929 -0.0320449 0.16253914 0.14561805 0.37859893 0.17606047 0.11007507 -0.19841981
0.17059042 -0.13281448 -0.037974402 0.021769702 -0.006682579 0.012726448 0.11226697 -0.117734455
-0.06731506 -0.067299895 -0.09753362 -0.13558975 0.04138082 0.2290534 -0.12429413 0.22616588
0.1850939 0.16712245 -0.4288354 0.12486328 0.04128257 0.10039847 -0.2662858 -0.02550228
0.19059084 -0.22533762 -0.058587804 0.029108645 -0.012624689 -0.32762444 0.19413756 -0.07204801
0.105368994 -0.37622446 0.10615161 -0.22299424 0.06623147 0.18200985 -0.011170199 -0.03266402
-0.22523797 0.04335174 0.12661341 -0.015399273 -0.24662851 -0.09947337 0.1605315 0.33103034
0.16023715 0.3049102 0.029149791 0.14124413 0.18480064 0.084203154 0.14029169 -0.0050753364
0.1638278 0.00048487363 0.17056113 0.05465959 0.3837868 0.028385365 0.2239296 0.07152689
0.12803592 -0.09121663 -0.11631905 -0.3107161 -0.07226755 -0.25444636 -0.058908764 -0.14700036
0.017906252 0.12398538 -0.077719755 -0.03309945 0.04817604 0.18272679 -0.082609415 -0.25285283
-0.14761548 -0.21467182 0.19994688 -0.022314372 -0.31411073 0.110679485 0.009586206 -0.20753805
00000000: 59a4 94bd cac4 3d3e 805a d53d 385b cb3d
00000010: 433b 4bbe b3d2 af3d 3831 c7b9 d8d5 fabd
00000020: 8023 03bc 55b1 743d 1754 1dbe 4966 403e
00000030: c1f4 9b3c 2c2a 713e 4677 6d3e 3644 063e
00000040: e4cf 5dbe 9e4a 363e 2097 273e 5858 103f
00000050: 0ec3 7abe f5ab d13d 1230 e1bd da5b 16be
00000060: 9fdb 3d3d e588 df3d ae2c 393e bf4b efbd
00000070: fee3 53be 05b2 babe 04ce 503d ac58 8dbe
00000080: 3195 293d bfc5 27bd 14ce 893d a39c b43d
00000090: 8fec 073e 5a38 8f3e a141 123e 9356 863e
000000a0: 33e4 57bd dbe3 df3c 6005 7d3e 833d 4a3e
000000b0: 7a35 7dbe f474 6c3e 36b7 0b3d 5d08 a43d
000000c0: 6014 753c 2f8e b4bc f841 9e3d 63fa 5abe
000000d0: 4859 cbbd f35a 423d 65e5 8bbc 2265 6abe
000000e0: 2b65 37be 5c35 91bd 985e 6e3c 6919 dbbc
000000f0: 4be3 2cbe e3bf 88be 5f74 2abe cc04 b9bd
00000100: 5698 81be 91ff 1dbe 4758 3abe 7f16 79bd
00000110: bb39 f63d 5cfc c63d dcb9 473e b45f 2cbe
00000120: 9097 7d3e 25b9 e2bc eb73 1cbe 235b 5cbe
00000130: 5562 11bd 1a75 fd3d 34e4 213e 6b90 b1be
00000140: 6cca 96ba 99a1 13bf 6fda fc3d 0be2 2e3e
00000150: 9625 67be ae74 4bbe 9a07 8f3e 457c 2e3e
00000160: 03e1 1dbe 208c 5dbe 1a2d b23d d740 1c3e
00000170: 34f2 10be 7d93 cc3d 8c58 e8bd 6727 853e
00000180: df60 213d 7e2c ea3d 55c2 00be ff13 603c
00000190: a301 08be 5464 353d 7b4f f43d fbd3 d53e
000001a0: f238 94bc 819a 163e 8821 c33e 6f05 ad3e
000001b0: 508c 60be cd13 ba3d 5362 56bb 8426 0f3e
000001c0: d505 60be c94b e9bb d979 fc3d d016 aebd
000001d0: 1743 a8be a9c2 1fbd fb30 c33d 9e5f 33be
000001e0: 2146 b5bd b32f e6bd 2aac 7bbd be5c 2bbb
000001f0: f1e5 2cbe 4d0e 5abe e32b c0bd d162 3bbe
00000200: 7edd 02be 1adf 8ebe 2817 bdbd 5588 94bd
00000210: 56f1 143e 6abb 873d 48ae 20be ba4a 1abe
00000220: d66b 22bd 2f94 063e ac37 f4bd cf6a 5b3a
00000230: fd77 5fbe 3cf1 c0bd 54bd a4be c30d 60be
00000240: 2d4f 863d d123 3e3e 25a5 4abe 0314 39bd
00000250: b5ea 29bc 5c3e bcbc c885 62bd d397 c5bb
00000260: 207b 403e a5ae 69bd 9dc1 a3bd b9de 843d
00000270: 10fe da3d ffda be3e 73e8 5f3e e348 a5bd
00000280: 0277 4d3e 8341 03bd a970 263e e61c 153e
00000290: b8d7 c13e 3249 343e 0a6f e13d 902e 4bbe
000002a0: 41af 2e3e 8500 08be 0c8b 1bbd 6056 b23c
000002b0: 89f9 dabb 9782 503c 3aec e53d c31e f1bd
000002c0: 7adc 89bd 87d4 89bd b5bf c7bd 0ad8 0abe
000002d0: ef7e 293d f98c 6a3e ec8d febd 0798 673e
000002e0: 4189 3d3e 2622 2b3e 5090 dbbe 52b8 ff3d
000002f0: ea17 293d b79d cd3d 9d56 88be 28ea d0bc
00000300: 3f2a 433e e8be 66be c4f9 6fbd 4175 ee3c
00000310: c9d7 4ebc 64be a7be ffcb 463e e88d 93bd
00000320: b3cb d73d 7ea0 c0be 0466 d93d 9a58 64be
00000330: 5da4 873d ca60 3a3e 3603 37bc b5ca 05bd
00000340: c8a4 66be 9891 313d f2a6 013e 3b4d 7cbc
00000350: 2f8c 7cbe b2b8 cbbd 5f62 243e cf7c a93e
00000360: 3515 243e 311d 9c3e 8bcb ee3c 4da2 103e
00000370: 613c 3d3e b472 ac3d a0a8 0f3e 024f a6bb
00000380: 7ac2 273e a336 fe39 94a7 2e3e bce2 5f3d
00000390: b47f c43e 6d88 e83c cd4d 653e b17c 923d
000003a0: d91b 033e c9cf babd af38 eebd 2e16 9fbe
000003b0: 0201 94bd cb46 82be 514a 71bd 4387 16be
000003c0: 22b0 923c 0cec fd3d 892b 9fbd 4a93 07bd
000003d0: 3d54 453d bb1c 3b3e 202f a9bd ed75 81be
000003e0: 8328 17be eed2 5bbe e0be 4c3e a1cc b6bc
000003f0: 1fd3 a0be edab e23d 760f 1d3c db84 54be

lstm.weight_hh_l0_reverse f4 [128, 32]
-0.015062237 0.16139722 0.1823912 0.12876242 -0.19960636 0.05140772 0.14353971 0.042773478
-0.18642423 -0.011463546 -0.05104883 -0.15261368 -0.08141893 -0.18986039 -0.13129376 0.03465267
-0.31624356 -0.12580018 0.118411854 0.03572074 -0.08589956 -0.12151902 0.2726279 -0.2868522
0.017829709 0.013266965 -0.1730263 -0.02743592 -0.113342285 0.009072581 -0.21165079 0.21499477
0.1840098 -0.16994826 -0.23172699 -0.1666671 -0.14098598 0.026823161 0.17810094 0.049171567
-0.108177565 0.08402907 0.2245321 0.092978835 0.33097178 -0.10051371 0.018401794 -0.098622315
0.00736074 -0.27693054 -0.15519796 -0.084180176 -0.03398222 0.024053443 -0.17450106 0.1589629
0.05253623 -0.11269421 0.09772288 -0.18826443 -0.18702199 -0.07047135 0.2776264 0.22745466
-0.061755393 -0.16719094 0.04209772 0.24802549 0.15778989 0.009613571 -0.13087808 -0.20545843
-0.33049512 -0.15383646 -0.116276935 -0.30955893 0.16325778 0.018033369 -0.12321621 0.017375035
-0.14115456 0.028721001 0.2345602 0.12232833 0.22554989 0.31456652 -0.046155713 -0.13230662
0.07541875 -0.0900492 0.19903167 -0.3947453 -0.1707638 0.22059992 -0.17495927 -0.25461343
-0.105297424 -0.25258625 -0.30686957 0.2876968 -0.17309785 0.23414098 0.192755 -0.0666895
0.035014372 -0.11887355 0.1089762 -0.42776826 0.184753 -0.058880374 0.077698424 0.22862476
0.043324355 -0.22253592 -0.1210428 -5.93527e-06 0.087216355 0.07073284 -0.21407436 0.2506279
0.10596602 -0.030929767 0.12696421 -0.12398396 -0.14772639 0.011790478 0.17507909 -0.027453657
0.17854688 -0.15353523 0.20015423 -0.100390814 0.00168784 -0.22175731 -0.013709049 -0.23213936
0.086101875 -0.12345572 0.007265237 0.07329973 0.083838925 -0.11255422 -0.19077665 0.060594585
-0.25914422 0.23800719 -0.011296343 0.07233052 -0.025223529 0.04568324 -0.037616074 -0.29365847
-0.16328171 -0.08844066 -0.088263564 -0.13263376 -0.17122272 -0.048740126 -0.08743334 -0.028236657
0.096874095 0.09886011 -0.004297223 0.0074966587 -0.1082561 -0.03749518 0.11602901 0.041575383
-0.011529787 0.17730494 0.07769958 0.089962274 -0.059060354 0.08248189 -0.13788706 -0.23100688
0.24025886 0.062738225 0.12456032 -0.12126342 0.2420492 -0.068845555 0.010711294 0.18179753
0.2524014 -0.17168868 0.008123115 -0.0884286 0.13955753 -0.010728311 0.03281087 0.30990937
-0.03784126 -0.16849129 0.2305591 0.0068438994 0.03526883 -0.02136896 -0.023333754 -0.17222105
0.120580055 0.24387659 -0.22141089 0.085073926 0.16011718 0.1083579 0.18517652 -0.25123784
0.17738599 0.010521054 0.18658677 -0.05985401 -0.107935846 0.08984723 0.26775858 -0.0044881986
0.2265378 -0.13819519 0.09530453 -0.11292202 0.04120088 -0.07619001 -0.047432106 0.17985684
0.24824643 0.0754005 0.09433485 -0.23125027 -0.08466152 0.056432657 -0.107443035 0.15812756
-0.06514721 -0.017865602 0.054996897 0.13549651 0.2218792 -0.06966823 0.15457734 -0.55679244
-0.14908272 -0.15101154 -0.076611884 -0.0240994 0.0009228015 -0.36099282 -0.07134971 0.019300826
0.23065077 -0.055608567 0.088859014 -0.00774922 0.2451628 -0.082165204 -0.02597273 -0.17667484
00000000: 9ac7 76bc 5045 253e c2c4 3a3e 4cda 033e
00000010: 9c65 4cbe e790 523d 13fc 123e 3e33 2f3d
00000020: fee5 3ebe 99d1 3bbc 9418 51bd c346 1cbe
00000030: f8be a6bd c36a 42be df71 06be f5ef 0d3d
00000040: adea a1be c3d1 00be ea81 f23d e94f 123d
00000050: 1cec afbd f7de f8bd e295 8b3e 4bde 92be
00000060: 9c0f 923c af5d 593c ce2d 31be 4bc1 e0bc
00000070: 0020 e8bd 2aa5 143c fcba 58be 9727 5c3e
00000080: 116d 3c3e eb06 2ebe d749 6dbe c8aa 2abe
00000090: a15e 10be 3fbc db3c 1860 363e 2068 493d
000000a0: 338c ddbd 6f17 ac3d beeb 653e b06b be3d
000000b0: 2275 a93e 22da cdbd 5cbf 963c 7ffa c9bd
000000c0: 5d32 f13b d7c9 8dbe 37ec 1ebe a866 acbd
000000d0: f130 0bbd ba0b c53c 68b0 32be 2cc7 223e
000000e0: 3b30 573d 39cc e6bd ef22 c83d 64c8 40be
000000f0: b182 3fbe 4853 90bd 0c25 8e3e e0e9 683e
00000100: 39f3 7cbd 1a34 2bbe a96e 2c3d 65fa 7d3e
00000110: ac93 213e 3d82 1d3c e704 06be b263 52be
00000120: a836 a9be 4e87 1dbe 9a22 eebd 827e 9ebe
00000130: 0c2d 273e b7ba 933c c858 fcbd 1756 8e3c
00000140: d28a 10be 4e48 eb3c 8d30 703e 4787 fa3d
00000150: 8df6 663e dd0e a13e c60d 3dbd 637b 07be
00000160: 2575 9a3d b76b b8bd f5ce 4b3e 0e1c cabe
00000170: b5dc 2ebe f2e4 613e 8628 33be b15c 82be
00000180: 2da6 d7bd fc52 81be 021e 9dbe ff4c 933e
00000190: 9040 31be a7c2 6f3e 9161 453e 8194 88bd
000001a0: 3b6b 0f3d fa73 f3bd ea2e df3d 7104 dbbe
000001b0: e42f 3d3e 8c2c 71bd 5a20 9f3d 9c1c 6a3e
000001c0: e174 313d 75e0 63be 4ae5 f7bd 9527 c7b6
000001d0: 7d9e b23d 61dc 903d 4f36 5bbe 4d52 803e
000001e0: b604 d93d 6c60 fdbc e802 023e 4deb fdbd
000001f0: 9645 17be d92c 413c ef47 333e 7ee6 e0bc
00000200: fed4 363e 5738 1dbe 3bf5 4c3e b399 cdbd
00000210: 833a dd3a 5914 63be eb9b 60bc f1b5 6dbe
00000220: 2e56 b03d 5ad6 fcbd 3a11 ee3b 2b1e 963d
00000230: beb3 ab3d d482 e6bd f45a 43be 0732 783d
00000240: 8dae 84be 28b8 733e 4c14 39bc 0622 943d
00000250: 93a1 cebc 591e 3b3d 5013 1abd 675a 96be
00000260: 5233 27be 6020 b5bd 87c3 b4bd 25d1 07be
00000270: 0255 2fbe baa3 47bd 4010 b3bd 9050 e7bc
00000280: ed65 c63d 2b77 ca3d b8cf 8cbb 88a6 f53b
00000290: 60b5 ddbd 8c94 19bd 9ea0 ed3d f34a 2a3d
000002a0: 6fe7 3cbc 6d8f 353e f520 9f3d 243e b83d
000002b0: 45e9 71bd 44ec a83d 4432 0dbe 118d 6cbe
000002c0: 6b06 763e e67c 803d 7b19 ff3d f558 f8bd
000002d0: bfdb 773e e6fe 8cbd 6c7e 2f3c 2229 3a3e
000002e0: c23a 813e 28cf 2fbe d016 053c 0e1a b5bd
000002f0: 2be8 0e3e ccc5 2fbc b164 063d 71ac 9e3e
00000300: 70ff 1abd fb88 2cbe af17 6c3e ca42 e03b
00000310: 0c76 103d f50d afbc 6e26 bfbc b75a 30be
00000320: adf2 f63d c9ba 793e 89b9 62be 3d3b ae3d
00000330: c2f5 233e bfea dd3d ea9e 3d3e 3fa2 80be
00000340: aca4 353e 8060 2c3c 9a10 3f3e 7a29 75bd
00000350: 780d ddbd d301 b83d a717 893e bd11 93bb
00000360: 86f9 673e 0a83 0dbe 052f c33d a943 e7bd
00000370: 41c2 283d 8209 9cbd 2b48 42bd 642c 383e
00000380: 5034 7e3e 946b 9a3d a132 c13d dfcc 6cbe
00000390: 0563 adbd ee25 673d 180b dcbd 31ec 213e
000003a0: e76b 85bd e25a 92bc 6d44 613d 99bf 0a3e
000003b0: 4d34 633e 38ae 8ebd 8649 1e3e f389 0ebf
000003c0: 24a9 18be c5a2 1abe b1e6 9cbd 1b6c c5bc
000003d0: 29e8 713a 0dd4 b8be cc1f 92bd c41c 9e3c
000003e0: b72f 6c3e cfc5 63bd b7fb b53d 2bed fdbb
000003f0: f50b 7b3e 3b46 a8bd c3c4 d4bc 40ea 34be

lstm.bias_ih_l0_reverse f4 [128]
-0.16417165 0.07201898 0.1692204 0.012299509 0.1271351 0.123952754 0.00080741354 0.103462376
-0.028135687 -0.2044705 -0.15361664 0.06816351 -0.07403484 0.001867164 0.22020079 -0.117065944
0.00998478 0.10949224 -0.03155975 -0.07986947 -0.04204507 -0.2375833 0.11970731 -0.09487236
-0.111624986 -0.12984923 0.1371669 0.07947778 -0.012243548 0.06718972 0.26556602 0.035778075
0.08184598 0.02691361 0.1444306 -0.12167032 -0.10495815 -0.1025569 0.14258419 -0.07023956
0.12772308 -0.15379657 0.060937315 -0.08914607 -0.32529792 -0.059016854 0.013715105 0.018364036
-0.03631881 0.22042048 0.11318797 0.24580632 0.31400034 0.069785066 -0.0890208 0.22475941
0.10141548 0.12752396 -0.11973326 -0.15762034 -0.18687145 0.1349481 0.1920484 -0.004528895
0.08859977 0.025813252 -0.1564486 -0.24142338 0.008169367 -0.24300572 0.0705194 0.062497895
0.13932382 0.13400143 -0.030343788 0.20722549 -0.15644479 0.042756077 0.0348172 -0.17997359
0.13100435 -0.037618257 -0.18878911 -0.14778146 0.12616637 0.071131244 0.097484 0.028037312
0.05980651 0.099431284 -0.035255272 0.09252732 0.035506517 -0.16605988 0.13714795 0.1611027
0.061856043 -0.14294465 0.114602216 -0.17483935 -0.072524875 -0.03392284 -0.0661263 -0.084813915
0.1236974 0.02607921 -0.10820411 -0.13544331 0.023707023 -0.102610305 -0.110614255 -0.20002516
0.009873893 -0.042670406 0.16753069 0.12464303 0.18044575 -0.06154956 -0.089319125 -0.0028534618
-0.14390135 -0.16225636 0.012149763 0.009812791 0.04556436 -0.12592877 -0.15624936 0.20492622
00000000: 9d1c 28be b07e 933d 1d48 2d3e e183 493c
00000010: b42f 023e f1da fd3d 9ba8 533a 15e4 d33d
00000020: d07c e6bc b760 51be ae4d 1dbe 4f99 8b3d
00000030: 949f 97bd a1bb f43a 517c 613e 45c0 efbd
00000040: 3497 233c 783d e03d cc44 01bd 9b92 a3bd
00000050: 7437 2cbd 0949 73be 1b29 f53d 714c c2bd
00000060: a49b e4bd 32f7 04be 7b75 0c3e 3fc5 a23d
00000070: 2a99 48bc c49a 893d 45f8 873e 088c 123d
00000080: dd9e a73d ee79 dc3c 9de5 133e 4a2e f9bd
00000090: 4cf4 d6bd 5a09 d2bd 9701 123e c2d9 8fbd
000000a0: d7c9 023e d97c 1dbe 6899 793d 3792 b6bd
000000b0: 738d a6be a8bb 71bd 52b5 603c 2d70 963c
000000c0: 08c3 14bd e8b5 613e 18cf e73d a7b4 7b3e
000000d0: a7c4 a03e 79eb 8e3d 8a50 b6bd 5527 663e
000000e0: ebb2 cf3d a495 023e b636 f5bd 3a67 21be
000000f0: 3b5b 3fbe d62f 0a3e 56a8 443e 2067 94bb
00000100: cc73 b53d 5076 d33c 1034 20be b137 77be
00000110: cfd8 053c 7ed6 78be 7a6c 903d cbfd 7f3d
00000120: e7aa 0e3e ac37 093e 8993 f8bc eb32 543e
00000130: 1033 20be ff20 2f3d 7b9c 0e3d ff4a 38be
00000140: 0126 063e 9a15 1abd ef51 41be 0654 17be
00000150: c231 013e 42ad 913d b1a5 c73d 81ae e53c
00000160: acf7 743d a1a2 cb3d d567 10bd f77e bd3d
00000170: 486f 113d 9a0b 2abe 8370 0c3e 1bf8 243e
00000180: c35c 7d3d 1560 12be 91b4 ea3d 1609 33be
00000190: ec87 94bd adf2 0abd 3a6d 87bd ebb2 adbd
000001a0: 1055 fd3d 11a4 d53c 1e9a ddbd a7b1 0abe
000001b0: 3b35 c23c 5a25 d2bd ba89 e2bd 65d3 4cbe
000001c0: 1cc6 213c 2ac7 2ebd 2a8d 2b3e d844 ff3d
000001d0: c5c6 383e 641b 7cbd f2ec b6bd 2501 3bbb
000001e0: e05a 13be 8826 26be cd0f 473c d4c5 203c
000001f0: b2a1 3a3d 79f3 00be d5ff 1fbe 2ed8 513e

lstm.bias_hh_l0_reverse f4 [128]
-0.12651809 -0.043494217 0.07206811 -0.10749455 0.079201564 0.20877811 -0.049217932 -0.15266125
0.087888464 -0.17520478 -0.15903999 -0.09177553 -0.23755376 -0.054851722 0.22014694 -0.12773092
0.15952234 0.26749104 0.15873668 -0.1547672 -0.06344885 -0.1415364 -0.060317013 0.04047414
0.03192594 -0.23769753 0.13585411 0.16125867 -0.15250228 -0.23666593 0.25027454 0.10253504
0.04590678 0.025054257 0.19695884 -0.37613893 0.047354456 0.10683032 0.1814078 0.15130407
-0.050675854 0.008850076 0.17832777 0.021932838 -0.20958355 -0.16266571 0.30746153 0.028143141
-0.09658795 0.11840792 0.12440523 0.26656485 0.3806632 0.19904311 0.09505348 0.045621913
-0.0109397415 -0.18644865 0.15033446 -0.14541812 0.04328064 -0.06412757 0.26728165 0.021100845
0.19272187 0.2067272 0.05561693 -0.26671153 -0.006490082 -0.0124550555 -0.054030214 0.12857887
0.041974377 -0.07054318 -0.26812288 0.23734728 0.06529045 0.023773758 0.18026392 -0.028787112
-0.13461928 0.017306222 -0.19449887 0.015556559 0.13863496 0.04442922 0.027969295 0.057053857
-0.048845317 0.10542353 -0.24036615 -0.034029987 0.17944978 -0.024745014 0.13123365 0.030479304
-0.053863473 -0.14293124 -0.0033545871 -0.19415446 0.11478729 0.083654866 -0.010606646 -0.064383194
0.21903192 -0.21368362 -0.116594866 0.19727468 -0.28913578 0.11890096 0.07743511 -0.097908355
-0.052558277 -0.048786633 -0.049241204 0.18138449 0.064183466 0.038418714 0.118740596 -0.0035164356
-0.11894592 -0.08339612 -0.1437462 -0.06633456 -0.04498779 0.07709461 0.017378729 0.08233947
00000000: f58d 01be fe26 32bd 7298 933d 1a26 dcbd
00000010: 6e34 a23d eec9 553e be98 49bd 3b53 1cbe
00000020: defe b33d e268 33be 61db 22be cff4 bbbd
00000030: 4b41 73be 33ac 60bd 336e 613e e5cb 02be
00000040: d359 233e 96f4 883e de8b 223e 4b7b 1ebe
00000050: 78f1 81bd ebee 10be f90e 77bd 36c8 253d
00000060: c6c4 023d fb66 73be 571d 0b3e fe20 253e
00000070: 8f29 1cbe 8e58 72be fc23 803e e4fd d13d
00000080: bf08 3c3d 963e cd3c 94af 493e 4895 c0be
00000090: bff6 413d dbc9 da3d f7c2 393e 74ef 1a3e
000000a0: 7c91 4fbd e9ff 103c 8e9b 363e 7fac b33c
000000b0: 129d 56be d791 26be 996b 9d3e 728c e63c
000000c0: e7cf c5bd da7f f23d 2bc8 fe3d 307b 883e
000000d0: 49e6 c23e f5d1 4b3e 66ab c23d 0bde 3a3d
000000e0: 9a3c 33bc 65ec 3ebe 47f1 193e 7de8 14be
000000f0: 0a47 313d 5155 83bd 24d9 883e aedb ac3c
00000100: e258 453e 4cb0 533e 94ce 633d 6a8e 88be
00000110: c1aa d4bb 4a10 4cbc c94e 5dbd 2eaa 033e
00000120: 53ed 2b3d f178 90bd 6747 89be 2a0b 733e
00000130: 00b7 853d 2fc1 c23c 1b97 383e f3d2 ebbc
00000140: a3d9 09be c7c5 8d3c b62a 47be f0e0 7e3c
00000150: 53f6 0d3e 6afb 353d dd1f e53c 4eb1 693d
00000160: 0712 48bd 4be8 d73d 8b22 76be 0763 0bbd
00000170: afc1 373e 0eb6 cabc 1d62 063e bcaf f93c
00000180: f29f 5cbd 915c 12be a2d8 5bbb 6dd0 46be
00000190: 9915 eb3d 3e53 ab3d 7fc7 2dbc 56db 83bd
000001a0: e749 603e e1cf 5abe 4ac9 eebd 6002 4a3e
000001b0: 9b09 94be 5982 f33d 4d96 9e3d 2d84 c8bd
000001c0: 5947 57bd 7ed4 47bd 25b1 49bd dbbc 393e
000001d0: 9f72 833d f15c 1d3d 452e f33d 0074 66bb
000001e0: eb99 f3bd 96cb aabd 3432 13be 6ada 87bd
000001f0: 1e45 38bd c7e3 9d3d d65d 8e3c 99a1 a83d

lstm.weight_ih_l1 f4 [128, 64]
0.1818948 -0.08381426 -0.05089643 0.051000874 -0.15339492 -0.056238975 -0.1731321 -0.058634598
0.14174628 -0.04816481 0.08970564 0.13804047 -0.11398646 0.01425749 -0.034592636 0.13086033
0.13435231 0.093234606 -0.4380276 -0.14096077 -0.11793321 0.11302169 -0.0115653975 0.17850472
0.22013327 0.04240541 0.19740552 -0.16868432 -0.0110164415 0.0012457413 0.31491205 -0.26235998
0.1523961 0.097599216 -0.07619634 0.08817174 0.0800174 -0.28428462 -0.063383594 -0.10520197
-0.046584208 0.26718208 0.02153263 0.06031649 0.19721813 0.19325802 0.1334011 -0.34189355
0.070732705 0.02996253 -0.19575596 -0.1555659 0.39532942 -0.2111968 -0.016104838 -0.03493517
0.012456459 -0.051722985 -0.1669362 0.034997165 -0.06803479 -0.19546866 0.11254009 0.13354133
-0.16473846 -0.3053252 0.15358087 -0.042371888 -0.055496655 0.1585097 -0.098332435 0.09406367
-0.1609288 0.18524702 0.113015145 0.09592188 0.0671245 0.08991068 -0.0041960687 -0.24627529
0.18626045 0.20338307 -0.19685063 -0.23594293 -0.15771781 0.05928697 0.15287666 -0.10949272
0.04578786 -0.12559794 0.09702005 0.2083756 -0.13617834 0.2186522 -0.12310661 0.010266445
0.13157363 0.28705305 0.025752237 0.21526457 -0.23339203 -0.15608354 0.34476402 -0.0015580895
0.18301487 0.20657559 -0.16901463 0.025906721 0.21019575 0.08648343 0.15325423 -0.16397071
0.15453969 0.022746049 -0.36572376 -0.09780362 0.26312932 -0.33818588 0.20090634 -0.1761411
0.027754668 0.12755907 -0.11840381 0.0664548 0.31550327 -0.31965524 -0.044031672 0.31730813
-0.006882042 -0.15930957 0.094403975 -0.12801346 -0.122283824 -0.06711742 -0.009286295 0.108236656
-0.10834445 -0.06319969 0.38158315 -0.054035947 -0.08312962 0.07879711 -0.01396764 -0.08484176
0.042279508 0.2485404 -0.1684436 -0.17219715 -0.1356512 -0.01856431 0.013900621 0.2607378
-0.18088473 -0.036547247 0.066133134 0.10863157 0.10323653 -0.05489898 0.04037321 -0.073259294
0.102639794 -0.44544286 0.2637538 0.037640255 -0.17117196 -0.40798604 0.23137106 -0.018738905
0.14192782 0.21205336 -0.13315766 0.094641395 0.014895683 0.206772 0.050011475 -0.3845772
-0.04982543 0.021818552 0.102736704 -0.021161372 0.026627677 -0.13096529 0.03306151 -0.051573317
0.12801465 0.031412233 -0.17662506 -0.11883843 0.09939428 -0.19292097 -0.07397429 0.055360865
0.28162032 0.070576355 -0.046396323 -0.13286878 0.02565672 -0.061769802 -0.17000645 -0.026175639
-0.169075 0.14284588 -0.2734749 0.05956476 -0.07766521 0.057598922 0.12311184 -0.08548495
-0.07670796 -0.09202822 0.077885665 -0.20502537 0.22874218 0.012536438 -0.025128242 -0.012785074
0.018828996 0.07293708 0.39640513 0.43531823 -0.25416663 0.1862892 -0.04342736 0.23638508
-0.030302787 0.19372086 0.23230094 0.22135101 -0.20080031 -0.079791255 -0.0015278677 -0.20770527
-0.14479849 0.19462264 -0.17345044 0.05799569 0.10006898 -0.05774264 0.08157303 -0.09224125
0.15848501 0.05049059 -0.007926318 -0.20051762 0.29503122 -0.08343012 -0.12266501 0.018855002
0.22092596 -0.14398706 -0.1429295 0.08669678 -0.17831483 0.11275928 -0.005211964 0.0820371
00000000: a142 3a3e d0a6 abbd c678 50bd 4be6 503d
00000010: 8f13 1dbe d75a 66bd 8b49 31be d52a 70bd
00000020: f025 113e 7748 45bd 97b7 b73d 7b5a 0d3e
00000030: bc71 e9bd 3f98 693c 02b1 0dbd 4000 063e
00000040: a793 093e c9f1 be3d 2745 e0be 0558 10be
00000050: f886 f1bd ea77 e73d cb7c 3dbc f1c9 363e
00000060: 9e6a 613e 4cb1 2d3d ac24 4a3e 95bb 2cbe
00000070: 4e7e 34bc 2448 a33a 273c a13e 0c54 86be
00000080: b90d 1c3e 19e2 c73d d40c 9cbd 6393 b43d
00000090: 2ae0 a33d c18d 91be 42cf 81bd 2174 d7bd
000000a0: 15cf 3ebd 17cc 883e 3365 b03c 6c0e 773d
000000b0: 8df3 493e 6ee5 453e 4c9a 083e ac0c afbe
000000c0: 4fdc 903d fb73 f53c 4074 48be ab4c 1fbe
000000d0: 9e68 ca3e f943 58be 4bee 83bc 2e18 0fbd
000000e0: 2d16 4c3c 7bdb 53bd 53f1 2abe 3059 0f3d
000000f0: d355 8bbd f028 48be 6b7b e63d 0fbf 083e
00000100: 33b1 28be 9653 9cbe 4e44 1d3e 258e 2dbd
00000110: 7650 63bd 5e50 223e 8462 c9bd 74a4 c03d
00000120: 85ca 24be 65b1 3d3e 7c74 e73d b172 c43d
00000130: 9278 893d 1723 b83d 2d7f 89bb 972f 7cbe
00000140: 0fbb 3e3e a743 503e 3693 49be 069b 71be
00000150: c780 21be e5d6 723d b38b 1c3e b83d e0bd
00000160: 0d8c 3b3d bf9c 00be 73b2 c63d 6a60 553e
00000170: 5672 0bbe 5de6 5f3e 511f fcbd 9734 283c
00000180: 3dbb 063e 9ef8 923e 5bf6 d23c 516e 5c3e
00000190: 52fe 6ebe 5dd4 1fbe e984 b03e cf38 ccba
000001a0: 4068 3b3e 8d88 533e 2c12 2dbe 553a d43c
000001b0: 8e3d 573e 391e b13d adee 1c3e f0e7 27be
000001c0: a73f 1e3e ec55 ba3c 2540 bbbe 444d c8bd
000001d0: e3b8 863e b326 adbe 64ba 4d3e 555e 34be
000001e0: c25d e33c d89e 023e b27d f2bd 7419 883d
000001f0: a589 a13e daa9 a3be 8e5a 34bd 3676 a23e
00000200: c182 e1bb 0c22 23be df56 c13d f615 03be
00000210: f16f fabd dc74 89bd 8b25 18bc 2eab dd3d
00000220: b2e3 ddbd d76e 81bd de5e c33e cc54 5dbd
00000230: dd3f aabd 6160 a13d 87d8 64bc 84c1 adbd
00000240: 472d 2d3d 6081 7e3e 7b7c 2cbe 7354 30be
00000250: 26e8 0abe 2e14 98bc 6ebf 633c 6d7f 853e
00000260: d939 39be 91b2 15bd cf70 873d 3b7a de3d
00000270: ad6d d33d c1dd 60bd 615e 253d f808 96bd
00000280: d034 d23d 1611 e4be bd0a 873e ab2c 1a3d
00000290: b447 2fbe 8ce3 d0be 89ec 6c3e 5582 99bc
000002a0: 8755 113e 8424 593e 7b5a 08be 59d3 c13d
000002b0: 060d 743c 0abc 533e d5d8 4c3d 4ee7 c4be
000002c0: c015 4cbd d2bc b23c 9f67 d23d 9d5a adbc
000002d0: 4922 da3c c41b 06be 826b 073d 8b3e 53bd
000002e0: 4616 033e 1daa 003d 33dd 34be 9061 f3bd
000002f0: 3a8f cb3d 138d 45be d57f 97bd 13c2 623d
00000300: 8a30 903e 568a 903d 120a 3ebd c10e 08be
00000310: 0b2e d23c 5502 7dbd 2c16 2ebe 4b6e d6bc
00000320: ff21 2dbe 3146 123e e704 8cbe 2efa 733d
00000330: f00e 9fbd d9ec 6b3d 0f22 fc3d bc12 afbd
00000340: 1019 9dbd 4b79 bcbd 8582 9f3d 2cf2 51be
00000350: 643b 6a3e a265 4d3c bed9 cdbc 7d78 51bc
00000360: 443f 9a3c 0960 953d 9df5 ca3e 08e2 de3e
00000370: 2122 82be 99c2 3e3e e3e0 31bd ee0e 723e
00000380: 8d3d f8bc c35e 463e 4ce0 6d3e d7a9 623e
00000390: 999e 4dbe 9969 a3bd bc42 c8ba b1b0 54be
000003a0: 0e46 14be 284b 473e fe9c 31be e38c 6d3d
000003b0: f7f0 cc3d 8c83 6cbd c30f a73d fbe8 bcbd
000003c0: e549 223e 39cf 4e3d 63dd 01bc 7e54 4dbe
000003d0: 550e 973e 69dd aabd cb37 fbbd ce75 9a3c
000003e0: 6a3a 623e 5871 13be 1c5c 12be 158e b13d
000003f0: 2a98 36be 56ee e63d 1fc9 aabb 1103 a83d

lstm.weight_hh_l1 f4 [128, 32]
-0.050621647 -0.20379725 0.11420212 0.03571685 0.11925206 -0.16385135 0.13261728 -0.008962416
-0.13711454 0.040203102 -0.21616703 0.023486946 0.1421851 -0.10727956 0.011156533 0.1454168
-0.09179826 0.035731878 -0.18798156 -0.094499774 0.084248036 -0.008896017 -0.0039151735 0.15367173
-0.22563167 0.18631448 -0.2006258 -0.051937938 0.27854657 0.06699658 -0.12149788 0.1601885
0.04816158 -0.07602677 0.1729751 0.03352074 0.06325385 -0.21020381 -0.016585357 0.035627477
-0.012934404 -0.09874995 -0.34653398 0.13126233 -0.119711556 -0.049665138 0.056915984 -0.1225125
0.11806512 0.3289344 -0.027392548 -0.057101153 -0.14087683 -0.10170769 -0.1227171 -0.06966575
0.061542034 0.047380336 0.0733464 0.09873228 0.2282379 -0.015087007 0.14319643 -0.017255265
0.07399602 0.038918328 0.123057134 -0.08965734 -0.044585843 -0.04606333 0.04521729 0.1669545
-0.083166905 0.12541671 -0.11765038 0.11611006 -0.09214578 0.11914809 0.19510068 -0.2325034
-0.13500907 -0.081638835 0.10308474 -0.18231219 0.11709914 0.043834317 0.12806554 0.05150011
0.21441369 -0.030405354 0.10444252 -0.050500553 -0.16709056 -0.25120392 -0.14851876 -0.108869195
-0.25742292 -0.07789974 -0.04428245 0.21123062 -0.012828496 -0.004358375 -0.09196286 0.105201386
0.11042299 -0.34770972 -0.22348544 0.03294869 -0.24927366 0.16002576 0.037701055 0.21627006
-0.037305746 -0.15276201 -0.0040217806 0.04633148 -0.07729661 0.09633601 -0.10444805 -0.14662607
0.07008397 -0.13188322 0.19316809 0.0139474785 0.04240158 0.20206468 0.08482795 -0.35830152
-0.098811395 0.15229571 -0.19477603 -0.06693485 0.015577236 0.13833526 -0.30935532 0.009682267
0.18584514 -0.14009696 0.07499021 -0.2921887 -0.010645699 0.3061424 0.006378524 0.09835649
0.21436499 -0.01328028 0.2156603 0.083928466 -0.11111006 -0.058328435 -0.2441428 -0.0010388703
-0.09210534 -0.27008033 0.076812536 -0.02248528 0.12769547 0.11103272 -0.27604106 -0.12532754
-0.25482047 -0.12822063 -0.09337174 0.15894817 -0.14224294 0.22787423 -0.23582332 -0.009507744
-0.010349552 0.12365407 -0.053906146 -0.026397903 0.047122218 0.057562873 -0.09585432 0.16446216
0.010789676 0.03371714 -0.049639273 0.04833355 -0.18297485 0.025214674 0.09791995 -0.3179631
0.15292743 -0.057290055 -0.098792724 -0.15724283 -0.21268965 -0.06333517 0.15004092 -0.1370609
0.12686956 0.057992995 0.08836096 -0.124771155 0.040855397 -0.027626691 0.21766332 0.12820604
-0.32271275 0.15967248 -0.007613499 0.11902749 0.33028686 -0.14949794 0.073223256 0.07923745
-0.19970198 -0.122334994 -0.18315238 -0.23215851 -0.049756672 -0.029768582 0.15428355 0.0040681404
-0.038082734 0.01068671 0.049113095 0.13054806 0.03303616 -0.019510891 0.18003337 0.18794717
0.21350522 -0.43529204 0.0074056867 -0.022676364 -0.009973582 0.1293934 0.31963846 -0.03839083
-0.26035944 0.05120954 0.078324884 0.093567446 0.124382675 -0.010239009 0.029811576 -0.0077969036
-0.21789882 0.09758967 -0.4754627 -0.33541477 -0.018001977 -0.016379006 -0.03511646 0.051994015
0.02004583 0.12825401 -0.009226006 -0.019895723 -0.0018609293 -0.25572458 -0.082581624 0.068745166
00000000: a558 4fbd 3ab0 50be cde2 e93d d54b 123d
00000010: 6d3a f43d a6c8 27be d3cc 073e 19d7 12bc
00000020: c167 0cbe 02ac 243d e45a 5dbe b267 c03c
00000030: f998 113e 63b5 dbbd e4c9 363c 24e8 143e
00000040: ba00 bcbd 975b 123d 3d7e 40be 1989 c1bd
00000050: 3c8a ac3d 9ac0 11bc db4a 80bb 1f5c 1d3e
00000060: fd0b 67be 39c9 3e3e da70 4dbe e0bc 54bd
00000070: a89d 8e3e 8135 893d e1d3 f8bd 7408 243e
00000080: 1445 453d ecb3 9bbd 6220 313e 0b4d 093d
00000090: 3c8b 813d ab3f 57be 04de 87bc 1eee 113d
000000a0: d3ea 53bc 6a3d cabd e76c b1be a269 063e
000000b0: 552b f5bd ac6d 4bbd bc20 693d d5e7 fabd
000000c0: 20cc f13d 176a a83e 5666 e0bc e6e2 69bd
000000d0: 0442 10be 1f4c d0bd 1a53 fbbd ebac 8ebd
000000e0: 8013 7c3d e211 423d a336 963d 2634 ca3d
000000f0: 32b7 693e 7e2f 77bc 16a2 123e ea5a 8dbc
00000100: 3a8b 973d d368 1f3d 6105 fc3d 449e b7bd
00000110: a59f 36bd e7ac 3cbd c435 393d 1ff6 2a3e
00000120: 6953 aabd 3d6d 003e aff2 f0bd 1ccb ed3d
00000130: edb6 bcbd ea03 f43d 79c8 473e 5f15 6ebe
00000140: d13f 0abe 4332 a7bd 181e d33d 0cb0 3abe
00000150: add1 ef3d 9d8b 333d 9d23 033e c8f1 523d
00000160: 438f 5b3e a614 f9bc f6e5 d53d abd9 4ebd
00000170: ca19 2bbe cd9d 80be 4d15 18be d0f6 debd
00000180: f0cc 83be e689 9fbd 8461 35bd d74c 583e
00000190: 9d2e 52bc b3d0 8ebb 0657 bcbd d373 d73d
000001a0: 7325 e23d 0207 b2be 5ed9 64be 35f5 063d
000001b0: 9841 7fbe cbdd 233e 6c6c 1a3d e675 5d3e
000001c0: e9cd 18bd a56d 1cbe 24c9 83bb 14c6 3d3d
000001d0: af4d 9ebd d04b c53d dce8 d5bd 2525 16be
000001e0: 2f88 8f3d 650c 07be dbcd 453e f783 643c
000001f0: 47ad 2d3d 0bea 4e3e 47ba ad3d 4c73 b7be
00000200: a15d cabd 68f3 1b3e 5e73 47be 2315 89bd
00000210: aa37 7f3c c2a7 0d3e d263 9ebe 5fa2 1e3c
00000220: 304e 3e3e 9475 0fbe 7894 993d c299 95be
00000230: 4c6b 2ebc b2be 9c3e f002 d13b 216f c93d
00000240: 7f82 5b3e 8895 59bc 0ed6 5c3e b0e2 ab3d
00000250: ac8d e3bd cce9 6ebd 9200 7abe b42a 88ba
00000260: b9a1 bcbd f847 8abe e44f 9d3d 0d33 b8bc
00000270: 9ac2 023e 1f65 e33d 4155 8dbe dd55 00be
00000280: d477 82be 454c 03be af39 bfbd 4fc3 223e
00000290: 22a8 11be dd57 693e ab7b 71be 5ec6 1bbc
000002a0: 2b91 29bc 583e fd3d b1cc 5cbd 6a40 d8bc
000002b0: 3a03 413d 0cc7 6b3d 454f c4bd c568 283e
000002c0: 2ec7 303c fc1a 0a3d 8d52 4bbd 67f9 453d
000002d0: c25d 3bbe 018f ce3c 418a c83d 0fcc a2be
000002e0: 0299 1c3e faa8 6abd d753 cabd 4404 21be
000002f0: 51cb 59be dfb5 81bd 54a4 193e b159 0cbe
00000300: 18ea 013e 108a 6d3d 97f6 b43d 0588 ffbd
00000310: fd57 273d 5f51 e2bc 22e3 5e3e 7248 033e
00000320: 9b3a a5be 2f81 233e a97a f9bb afc4 f33d
00000330: 5c1b a93e fd15 19be 13f6 953d 3f47 a23d
00000340: ad7e 4cbe c58a fabd 4c8c 3bbe f6ba 6dbe
00000350: a7cd 4bbd 3edd f3bc 82fc 1d3e 094e 853b
00000360: a4fc 1bbd 4f17 2f3c d02a 493d 64ae 053e
00000370: ed50 073d 4ed5 9fbc ab5a 383e 3975 403e
00000380: 1da1 5a3e 99de debe 67ab f23b c8c3 b9bc
00000390: 3c68 23bc b47f 043e a7a7 a33e b43f 1dbd
000003a0: d54d 85be 18c1 513d cc68 a03d 4aa0 bf3d
000003b0: 58bc fe3d 84c1 27bc 6837 f43c 2b7d ffbb
000003c0: de20 5fbe 18dd c73d d96f f3be 7cbb abbe
000003d0: e278 93bc 442d 86bc 47d6 0fbd adf7 543d
000003e0: 2737 a43c 0555 033e ad28 17bc 5bfc a2bc
000003f0: 6dea f3ba 55ee 82be 8e20 a9bd 44ca 8c3d
